clf_models/dam_prediction.onnx (onnx, 48409 bytes, 25 tensors)

model.0.weight f4 [128, 7]
00000000: 9fed f9bc a481 cc3d 4cec 693e c95d 903d
00000010: 5e7d be3e 492c b43b bb1f 70be 12f5 5e3e
00000020: fed7 693e 5c9a f9be 13c8 c13d 6ca5 c9be
00000030: 7362 4f3e 6b85 5ebd 312d 543e fa29 12bf
00000040: bf13 c0bc d61d 4cbe 7b9b c53d dd0a b83d
00000050: f548 213e 9628 63bb fe68 ba3e 82e6 01be
00000060: 3d5b 183e c7ed 96be 6407 05bf de08 f5bd
00000070: 5abc 333e 63a4 be3e 0ef7 063e c2a8 3d3d
00000080: 7084 3ebe 1ed7 3bbf 826a aebc 90f3 88be
00000090: 65bf 50be 89fa 18be 2e1e 8ebe 8598 84bd
000000a0: 5a8c 773e 3c17 c1be 1010 8c3e a0f5 98be
000000b0: d1dc 7e3e 1b62 c83e fb46 b13d 716e dc3e
000000c0: bb83 253e 57d2 20be cde7 62be 63db aa3e
000000d0: 0f88 b3be d2e6 6bbe 5aec 51be 8f62 20be
000000e0: 8407 43bd a369 5abc 4c81 583c bfda bfbe
000000f0: fe28 963d e331 4d3e 9894 8f3e ede0 573e
00000100: e69d 983e 7162 cdbd 219a 63bc 028a 0bbf
00000110: a2b6 a5bd 05ca 863d 07d6 b43e 86dd c6be
00000120: e00c a73e 2fce 973e b68f 223f d991 01be
00000130: 2a73 b43d 991d 84be 2229 0cbd 6b5d cfbe
00000140: d08b 50bd 7599 3d3e 5525 b73e 57a0 88be
00000150: 99ac 41be 1663 3c3e 1791 643e b07c 37bf
00000160: bf80 e93e 0ab5 46be a746 78bc f31e 03be
00000170: e6a0 89be 84f9 19be bcee 033f 1302 eb3e
00000180: cc48 c7bd c479 80bd 0abd 8c3d fda9 0dbe
00000190: b478 46be dbd2 aabd a6d0 d93e 60eb 78be
000001a0: cddf 12bc a78d b43e c7bb 87be 40a7 59bd
000001b0: 48ab 17be 392f 8cbe 936f c33e a6a5 983d
000001c0: eec9 b4be 02a3 ce3e d594 f83d 2510 0ebf
000001d0: 0aee 9fbe 95eb 2d3e d2a0 99be 7e55 debd
000001e0: 7b9f cb3e c4d5 a83e 36c5 3abc bc32 f0be
000001f0: 7783 69bd 7fce 19bd 7e39 8f3b 94fd 88be
00000200: da7d 893e 63d3 8f3e 2aed 85be ede7 a6be
00000210: 97ef 95bc 4aef a5bd 20d1 6c3e ebdf 833e
00000220: ca30 183e 2227 763e ac5d a5be 50de 34bd
00000230: 6ad1 d63e a0cb 81be 4802 13be 57c3 793e
00000240: 9f40 4abe 0a97 08be 4af9 4bbe 3cb9 a43e
00000250: c490 043f eafe 9d3e 4f46 2e3e 1437 ecbd
00000260: a444 ff3d 3b72 173e 4674 46be 13fa 42be
00000270: 1b1f 77bd a8ef 163e d9c4 06be 8f89 023f
00000280: f8f3 973e 0fba 87be b0bc 63be bcea adbd
00000290: 645c af3e 90a6 58be d53b 273e 73fd 8dbe
000002a0: e1d6 fb3d 8951 b43e d2b1 f63e 41f0 1d3e
000002b0: f40f a5be a45f f0be 72a3 cb3c 22ae acbd
000002c0: 01ff b33e 400a 23be 5c95 90be ac75 653d
000002d0: 7bad 54be bb45 2ebe c1b1 15be 3e3c 6e3e
000002e0: 0087 78bd a37f 5cbf 911a d33d 5a03 be3e
000002f0: f291 bcbb 9ba1 1a3e 95f8 e6be a398 ce3e
00000300: fd2b d0bd 0c1f 123f 01c7 4a3e 8555 a3bc
00000310: 9c66 c63d 283a bf3e 380d e3be 5747 02be
00000320: 0025 53be 3442 b53d 1b96 0b3d 635c 683c
00000330: eecf 343e 1f23 32be d26e ce3e 81ae 5fbd
00000340: 555d ed3e d292 5e3e f1ee 60be bd91 0d3d
00000350: bbcf 213d df31 2abf d4d5 3ebd 27cc 18bd
00000360: 5c34 96be 53df fb3d 88b6 a4bd 464f a33e
00000370: 1aef bd3d 0314 023f 1a33 d83e 5d08 f2bd
00000380: 4e77 ecbc 8470 0e3e 7b56 c1be a2b7 c03d
00000390: 6a43 323d b5cb 823e cf54 8a3e d8f4 da3b
000003a0: 39ff d53e b8f3 d63e 715b 64bd 9756 113e
000003b0: e768 34be a88f a43c e7e6 403d 784d 72be
000003c0: 0b6e cf3e 0fe3 ad3d 062d b53d b315 e0bd
000003d0: 97de 99bc 00f0 9b3c d383 c53e 7a1c dc3d
000003e0: 5a98 be3d c9f3 023e b632 f9be e839 b2bc
000003f0: 929a 823e df1d a23d 4f32 803e 68aa 9dbe
-0.030508814 0.099856645 0.22844046 0.07049138 0.37205023 0.0054984433 -0.23449604 0.21773174
0.228363 -0.4875058 0.09461989 -0.3938402 0.20252399 -0.054326456 0.20720364 -0.570953
-0.023446916 -0.19933257 0.09648796 0.08986447 0.15750487 -0.0034661642 0.36408228 -0.12685588
0.14878555 -0.29478285 -0.519644 -0.11964582 0.17552319 0.37234792 0.13180181 0.046303518
-0.18605208 -0.7337512 -0.021291021 -0.26748323 -0.20385511 -0.14939322 -0.277574 -0.06474403
0.24174634 -0.3771304 0.27356005 -0.29874897 0.24888922 0.3913735 0.086561166 0.4305301
0.16163532 -0.15705238 -0.22158737 0.33370504 -0.35064742 -0.2303727 -0.20500317 -0.15662597
-0.04761459 -0.01333085 0.0132144205 -0.37471578 0.073320374 0.20038562 0.28043056 0.21081896
0.29807967 -0.10028542 -0.013891728 -0.5450746 -0.08091475 0.06581501 0.3531954 -0.38840884
0.3262701 0.29649493 0.63500535 -0.12653293 0.08811028 -0.2580383 -0.034218915 -0.4050096
-0.050914586 0.1851557 0.3577067 -0.2668483 -0.18913497 0.18397173 0.22320972 -0.71674633
0.45606038 -0.19404998 -0.015153564 -0.12804775 -0.26880568 -0.15036589 0.51536155 0.4590002
-0.09730682 -0.06273225 0.06871994 -0.13834377 -0.19381982 -0.08340999 0.42542 -0.24308538
-0.008964491 0.35264322 -0.2651045 -0.053138018 -0.14811432 -0.27379778 0.38171062 0.0745347
-0.3531031 0.4035874 0.121377625 -0.55493385 -0.31236297 0.16984399 -0.3000551 -0.1085615
0.3977011 0.3297559 -0.011399558 -0.46913707 -0.05701014 -0.037550446 0.0043708673 -0.26755965
0.2685383 0.28090963 -0.26157504 -0.3259882 -0.018302722 -0.081022814 0.2312665 0.25756773
0.14862362 0.24038365 -0.32298028 -0.044157326 0.41956645 -0.25350666 -0.14356339 0.24390922
-0.19751213 -0.13338867 -0.19919315 0.32172573 0.51783395 0.30858546 0.17019008 -0.11533943
0.12464264 0.14789669 -0.19380292 -0.19040708 -0.0603324 0.14739859 -0.13161029 0.5099115
0.2967832 -0.2650914 -0.22239947 -0.08492038 0.34250176 -0.21157289 0.16331418 -0.2773243
0.12296844 0.35218456 0.4818254 0.15423681 -0.32238734 -0.46947968 0.02485821 -0.08431651
0.3515549 -0.15921879 -0.28238952 0.056020424 -0.20769303 -0.17018788 -0.14618589 0.23265168
-0.06067562 -0.8613226 0.103078015 0.37111932 -0.0057547027 0.1510071 -0.45111528 0.40350828
-0.1016464 0.57078624 0.19802476 -0.01993824 0.0968754 0.37349057 -0.44346023 -0.12722526
-0.20619583 0.08850518 0.0340787 0.014182183 0.17657444 -0.1739621 0.40318924 -0.05460978
0.4636027 0.21735695 -0.21966149 0.034562815 0.039504748 -0.6648235 -0.04659064 -0.03730407
-0.29336822 0.12298455 -0.080426276 0.31896418 0.09274121 0.50811785 0.42226487 -0.118180014
-0.028865483 0.13910109 -0.37761292 0.09410025 0.043521322 0.2554604 0.2701783 0.0066820197
0.41796282 0.41982818 -0.055751268 0.14193188 -0.17618142 0.020088032 0.047095206 -0.23662364
0.40513644 0.084905736 0.08846478 -0.10941639 -0.018782897 0.01903534 0.38577136 0.10747619
0.093064025 0.12788309 -0.48671502 -0.021756127 0.25508553 0.07915854 0.25038382 -0.30794072

model.0.bias f4 [128]
00000000: c477 b2be b3cb 413e ae59 0abe 0584 1fbe
00000010: 4080 503d 5852 0c3e f9de 8c3e c7b2 6fbe
00000020: bd48 7d3e 4c28 d3bd 84d3 943e fc9a 06bd
00000030: 9aef 193d 6bad aa3d 510b 56be 9918 bbbe
00000040: 34cc b63e eccb 0dbe c4f9 813d b6e0 ba3e
00000050: b76e 563e dbd5 e3bd 2085 703e 8b1b cf3d
00000060: d8f9 86be 3785 bf3e 426b 923e 13a5 82be
00000070: 9660 20be 890d 3cbd 85ac 6c3d f3c4 993e
00000080: c0e4 913d aa03 863d 497c a7be 0f6b 973d
00000090: 0355 a93d 8891 ae3d a04a 7bbe 3b44 b63d
000000a0: b7d7 593e 84ec 39be 993b 393d 56c8 dbbd
000000b0: 1f36 4e3d ce97 27be 592c 0bbe f9ff 673e
000000c0: ae76 83be f322 bcbe 0e96 9ebe 0abf 76bc
000000d0: abf9 ac3e 9cd9 513e 2617 adbc 3d14 3d3e
000000e0: 116e 883e 64b0 f73d 3b8f fe3d cadc 20be
000000f0: b141 253e 304b 44be d66e bd3e 2bef 29bd
00000100: fc9d 9cbe df2d 48bd b26f 80be 602d 3d3e
00000110: e04d 45bd 9f34 3cbd 7d60 97be 1a5b b4be
00000120: 5c67 dc3d 16b1 943e 4373 8ebe b4b7 93be
00000130: 9757 203e e53e a93e 51d7 6c3e 178e 42be
00000140: 4562 9cbe 2dcd 913e c88b 4b3d 27dc 6bbe
00000150: e76c 63bc da11 213e 94f2 8d3e ecd7 87be
00000160: e91a 34be 90bf 26be bfbd 813c 0418 c73d
00000170: 035d b73e 9ef9 a23e 6d79 9cbe 87da 0a3c
00000180: 6b33 70be 1d42 043e e793 7ebe 8cd8 333e
00000190: b0c7 22be 8990 493e e16a 31be c0ee 0abe
000001a0: ff7d 90be dae3 823e f89e af3d 66e1 a7be
000001b0: 09cb bbbe ed3f be3e 87cd 713e 85fc 5cbd
000001c0: 6f03 163e d125 2bbe 9c6f b03e 0cc9 563e
000001d0: e5f9 9f3e 4e2e 903d 2cbf d93d ca91 79be
000001e0: 3695 9abd 872a a93e 236a 79be 6e48 ac3e
000001f0: 02e8 5b3e 8c7e 873e a891 9a3e 94b9 e63c
-0.34857 0.18925361 -0.13510773 -0.15577705 0.05090356 0.13703287 0.27513865 -0.23408042
0.24734779 -0.103104204 0.29067624 -0.03286265 0.037582017 0.08333858 -0.20902754 -0.36542204
0.3570267 -0.13847321 0.06346467 0.36499566 0.20940672 -0.11124774 0.23488283 0.10112675
-0.2636249 0.37406322 0.28597456 -0.25516567 -0.15661845 -0.045911346 0.057781715 0.30033073
0.07123709 0.065436676 -0.3271201 0.07393467 0.08268168 0.08523852 -0.24540186 0.08899733
0.21273695 -0.1815663 0.045222852 -0.107315704 0.050344583 -0.16366503 -0.13591136 0.2265624
-0.25676483 -0.36745414 -0.30973858 -0.015060196 0.33784232 0.20493168 -0.021129202 0.18464752
0.26646474 0.12094191 0.12429663 -0.15709224 0.1613834 -0.19169307 0.36998624 -0.041487854
-0.30589283 -0.04887187 -0.25085217 0.1847434 -0.04816997 -0.04594862 -0.29565802 -0.35225755
0.10761902 0.29041356 -0.27822313 -0.28851092 0.15658413 0.33055797 0.23129012 -0.18999515
-0.30543724 0.2847685 0.049693853 -0.230332 -0.013880945 0.15729466 0.27724135 -0.26531923
-0.1758839 -0.16284013 0.015837548 0.097213775 0.3581315 0.31831068 -0.3056139 0.008474953
-0.23457114 0.12915845 -0.24861108 0.17563075 -0.15896487 0.19684042 -0.17325927 -0.13567638
-0.28221127 0.25564462 0.08575243 -0.32789153 -0.3667834 0.37158147 0.23613559 -0.05395176
0.14649747 -0.16713645 0.3446015 0.20975131 0.31245342 0.07040082 0.10632166 -0.2437202
-0.07547991 0.33040258 -0.24356894 0.3364901 0.21475223 0.26463735 0.30189252 0.028164662

model.1.weight f4 [128]
00000000: 272d 3e3f 3149 8e3f b9f7 5c3f 7e37 773f
00000010: 5f87 663f 892d 353f f326 633f aad5 593f
00000020: c0c2 523f 240f 7d3f 7cb4 653f c9e1 603f
00000030: a703 853f 86da 773f e46f a03f 87b1 653f
00000040: f4aa 5d3f 9025 8d3f 6c86 853f 5d50 773f
00000050: 997f 3f3f beb9 693f 8ecf 543f 96fa 4e3f
00000060: d014 763f a83f 483f c64c 843f 3df3 763f
00000070: e672 883f 2bbe 613f 950f 3e3f 26f0 563f
00000080: 8f38 613f 8b95 773f 419d 4d3f 9b97 803f
00000090: 2211 7d3f 724f 8b3f ef1d 6b3f 9e6f 7a3f
000000a0: f6ca 843f 4433 4b3f fa80 613f 5be0 823f
000000b0: 6839 643f a6f4 593f cae8 873f ef38 5c3f
000000c0: ce6d 5b3f 57a2 653f 873f 4e3f 8bdd 573f
000000d0: c999 633f 10a5 523f 7e5b 4c3f a5d4 6c3f
000000e0: 09cc 833f ddbd 673f 329a 513f b31e 523f
000000f0: c707 803f 44dc 883f f32a 583f b4c3 3d3f
00000100: 1c79 963f c2c5 6e3f 98f2 5c3f ab42 713f
00000110: ee9b 853f 8652 743f 907f 593f 6e57 3a3f
00000120: 467f 893f f9d1 913f 70c3 7b3f 5724 533f
00000130: f495 693f b9d8 773f 4b7f 723f a0ac 723f
00000140: 8517 783f 75b2 823f 383b 4a3f ca14 4e3f
00000150: ddc0 833f f0bb 943f 64e9 643f 9caf 653f
00000160: ef9f 673f fd57 3e3f ff1f 593f 4b12 5c3f
00000170: d134 883f 45c1 5c3f ea58 6c3f c002 823f
00000180: 86cd 663f 3889 8e3f c332 4a3f b20a 8e3f
00000190: 3f04 663f 8e61 5f3f efb4 833f e311 4b3f
000001a0: 5647 9e3f 09fe 723f 2d3f 5d3f aa7f 3f3f
000001b0: 1539 423f a1d2 7c3f a904 5a3f 79fc 583f
000001c0: d855 6f3f 2334 633f 3d20 553f 274b 493f
000001d0: fa24 573f 18fb 893f 0104 683f 135f 813f
000001e0: 9eca 763f 76b5 7c3f a784 4c3f 3038 4d3f
000001f0: dd6e 6a3f f13e 843f fe80 5a3f f702 533f
0.74287647 1.1116086 0.86315495 0.9656905 0.9005031 0.70772606 0.88731307 0.8509165
0.82328415 0.9885123 0.8972852 0.8784452 1.039174 0.96817815 1.2534146 0.8972401
0.8658898 1.1027088 1.0431647 0.96607 0.74804074 0.91299045 0.83129203 0.80851114
0.9612551 0.7822213 1.0335929 0.964649 1.0660064 0.881808 0.74242526 0.8396019
0.87976927 0.9671256 0.80318075 1.0046266 0.9885427 1.088362 0.9184255 0.97826564
1.0374439 0.793751 0.8808743 1.0224718 0.89150095 0.8513893 1.0617917 0.86024374
0.85714424 0.89700836 0.80565685 0.8432242 0.8890653 0.82283115 0.79827106 0.9251197
1.0296642 0.90524083 0.8187591 0.82078093 1.0002373 1.069222 0.84440535 0.74126744
1.175571 0.93270504 0.8630767 0.9424235 1.0438211 0.9543842 0.8496027 0.7278966
1.0741966 1.1392204 0.9834509 0.82477325 0.91244435 0.9681507 0.94725484 0.94794655
0.9691089 1.0210711 0.7899661 0.8050047 1.0293232 1.1619854 0.89418626 0.89721084
0.90478414 0.7435301 0.8481445 0.8596541 1.0641118 0.86232406 0.9232317 1.0157089
0.90157354 1.1135626 0.78983706 1.1097014 0.8985023 0.8725823 1.0289592 0.7932417
1.236552 0.94918877 0.86424524 0.74804175 0.7586835 0.98758894 0.8516336 0.8476024
0.9349036 0.8875143 0.83252317 0.786303 0.84040797 1.0779753 0.9063111 1.0107139
0.9640292 0.9871439 0.7988991 0.8016386 0.91575414 1.0331708 0.85353076 0.824264

model.1.bias f4 [128]
00000000: 70b7 a6be c625 59be aa6a 0fbe 31a3 94be
00000010: e9c2 85be 0a0a 6fbe dd3b a9be 1bcb 59be
00000020: b0fd 4dbe 4523 59be 7406 64be bde6 acbd
00000030: 65a4 b9be 63ab 76be d0b2 6abe 038b 8dbe
00000040: 32e3 79be 235d 80bd cb85 a7be c2a6 84be
00000050: f2c0 a2be 3aa7 ddbe a3e0 1dbe 99c8 85be
00000060: c4df 98be 9065 77be c4d8 78be 9622 27be
00000070: a006 87be a526 47be edfb 93be 84e6 87be
00000080: d53b a6bd 9b71 b6be d392 a0be 3a33 86be
00000090: bcfd 7bbe c54b 83be db4c ddbd b946 53be
000000a0: a17b b8be 8fda 76be 808c afbe 6d80 09be
000000b0: 2ad4 9bbe c96a eabe 71ac adbe c7cd 9bbe
000000c0: c8b1 eabc c09e 7fbd 4fd6 1bbe 2316 40be
000000d0: 0807 ebbe 9a19 06be 4333 25be 4e84 6cbe
000000e0: b152 43be be1e 40be bcad 68be 3de7 a6bd
000000f0: 2cd3 d8bd 1b97 19be ce6b 09be 0a58 1ebe
00000100: c34c 98be 06c4 72be 3a78 e73c e152 a2bd
00000110: 3b80 88be 3876 91be 0be5 b4be 2a5f 51be
00000120: e80c 09be 2f6c b0be c147 fabd 5253 a1be
00000130: 54c4 14be 4d43 43be 7741 44be e6da b1be
00000140: a39e 10be bf72 04be d969 e6bd f869 91be
00000150: 8ffd 75be 459b 3d3d c972 a5be a889 e3be
00000160: ac3f a1be 0cb3 d2bc 850f 70be 483f 6cbe
00000170: 56e3 7fbe a89b 9dbe 2b2d 17be 7b4a a3be
00000180: ac9a d9bc 71fc 8abe 177d 65be dc51 5abe
00000190: 7668 8abd b669 58be dfcc 29be 48aa 51be
000001a0: 348a 07be 2bfc a3be 7cab 7dbe 6113 c3be
000001b0: 34d8 85be 9cda 69be f2be 91be bde2 8ebe
000001c0: be63 98be 0211 0ebe a1b5 30be 7e94 7abe
000001d0: de42 3bbd b06f 56be cb30 07be 1cdc 23be
000001e0: 0911 2fbe 8d1c 7abe e3d2 a4be acab 89be
000001f0: 4c3e 96be b25f 85be 055d c0be 81bf 5abe
-0.32561827 -0.21205816 -0.14005533 -0.29030755 -0.26125267 -0.23343673 -0.33053485 -0.21268885
-0.20116305 -0.2120486 -0.22268087 -0.08442447 -0.36258236 -0.24088816 -0.22919774 -0.2764512
-0.24403074 -0.062677644 -0.32719263 -0.25908476 -0.3178783 -0.43291646 -0.15417723 -0.26129606
-0.2985822 -0.24159837 -0.2430144 -0.16321787 -0.26372242 -0.19448335 -0.28903142 -0.26543057
-0.08116881 -0.3563355 -0.31362018 -0.26210958 -0.2460851 -0.25643745 -0.10805675 -0.20632447
-0.3603182 -0.24106811 -0.3428688 -0.13427897 -0.30435306 -0.45784596 -0.33920625 -0.30430433
-0.028649226 -0.062407255 -0.15218471 -0.18758444 -0.45903802 -0.13095704 -0.16132836 -0.23097345
-0.19074513 -0.18761727 -0.22722524 -0.08149574 -0.10587153 -0.14999048 -0.1342003 -0.15463272
-0.29746065 -0.2370759 0.02825557 -0.07925964 -0.26660332 -0.28410506 -0.35330996 -0.20446458
-0.1338383 -0.34457538 -0.12220717 -0.3150888 -0.14528018 -0.19068642 -0.19165598 -0.3473732
-0.14123015 -0.12934397 -0.112506576 -0.2840116 -0.24022506 0.046290655 -0.32314137 -0.4444096
-0.3149389 -0.025720142 -0.2344342 -0.23071015 -0.24989066 -0.3078282 -0.14763324 -0.31892762
-0.026563011 -0.27145723 -0.22410999 -0.2132029 -0.067582056 -0.21134076 -0.16582058 -0.20475113
-0.13236314 -0.32028326 -0.24772447 -0.38100722 -0.26141512 -0.22837299 -0.28465992 -0.27907363
-0.29763597 -0.13873675 -0.17256786 -0.24470708 -0.045718066 -0.20941043 -0.13202207 -0.16001934
-0.17096342 -0.24424954 -0.32192144 -0.26888788 -0.29344404 -0.26049572 -0.37570968 -0.21362115

model.1.running_mean f4 [128]
00000000: 87bd ecbf 34a0 1940 a221 9f41 67ba 93c1
00000010: 34a6 f440 5e51 5bc2 5024 3942 b1fc fec1
00000020: 8c2e 8141 6501 2541 e574 5442 7162 20c2
00000030: c8de f2c0 a3ff 01c1 3b11 9940 ed53 d441
00000040: cb0a 4ac2 b986 20c1 4603 f2c0 02bc ed3f
00000050: b253 3041 71bf 5142 82fa 9440 76a2 36c2
00000060: f568 6841 f36b a2c1 6010 27c1 26b2 e041
00000070: 913b fa3f de2a bc41 9078 31c2 69ec da41
00000080: 49e8 7141 0716 8d41 7ea4 0d41 2e1a a740
00000090: c2f8 4c41 0124 8541 7424 e4c1 0a75 8841
000000a0: f46a 1bc1 e758 3f41 d7dd f141 0952 e0c1
000000b0: 678c 3a42 73ca 8042 55bb 40c0 5529 3e42
000000c0: bd73 bb3f 8e8f f840 7425 8ec1 8120 84c1
000000d0: 9663 3c42 c6cd 0cc2 8616 79c1 8ef8 3241
000000e0: b810 2441 f551 da41 9ba6 a340 7cbb f0c1
000000f0: 0359 e63f e78c 8941 ed34 d2c1 28cc 02bf
00000100: 858d c23e 65d9 d340 1e32 7b40 1a8a ba41
00000110: a9f1 7740 1fdb 4241 2308 3641 aabc e540
00000120: b785 95c0 16c2 2641 8526 e940 202e 1841
00000130: aa67 843d 966e 8a41 be67 0442 9321 4d42
00000140: 935b 9a41 d2ed 0ac1 6edb 8c40 6c1d 0142
00000150: 9a23 9341 900b 4740 18ec c441 8b87 5742
00000160: 4b83 d141 d91b b73f 4b04 aec0 2208 0bc1
00000170: a08d 1541 3232 2942 6f2d 0fc1 728a b740
00000180: ce7c 2842 680b 0841 e94d 0dc2 881e ba40
00000190: 9b0b 1bc2 7900 bbc1 d665 4241 8294 0f41
000001a0: 36e1 c9c0 3b90 ab41 4e78 82c1 55ae 0f41
000001b0: ce39 16c1 0571 4942 8c6b 7841 d6e8 9141
000001c0: 0c22 2bbf 5eeb 7741 a4fd acc1 83fa 9fc1
000001d0: e188 b4c1 9a8d 5d41 f546 3742 0346 ca40
000001e0: 9cd8 1d42 964a c5bf d7b6 9841 c48a 0042
000001f0: 5a4b 0542 9ccd d040 f45f 7242 67c6 ae40
-1.8495339 2.400403 19.891422 -18.466017 7.6452885 -54.82946 46.28546 -31.873384
16.147728 10.31284 53.114155 -40.096134 -7.589695 -8.124911 4.7833533 26.54098
-50.51054 -10.032891 -7.5628996 1.8573 11.020433 52.436954 4.6555796 -45.658653
14.525624 -20.30271 -10.441498 28.086987 1.9549428 23.520931 -44.367737 27.365435
15.11921 17.635756 8.852659 5.221946 12.810732 16.64258 -28.5178 17.057148
-9.713612 11.959205 30.23332 -28.040056 46.63711 64.39541 -3.0114338 47.540363
1.4644696 7.767524 -17.768288 -16.515871 47.09725 -35.20095 -15.567999 11.185682
10.254082 27.290018 5.1140876 -30.091545 1.7995914 17.1938 -26.275843 -0.5109277
0.37998596 6.6202874 3.924934 23.317432 3.8741248 12.178496 11.3769865 7.1792803
-4.6725726 10.422384 7.285952 9.511261 0.06465085 17.303997 33.10131 51.282787
19.294714 -8.683062 4.401786 32.278732 18.392384 3.1100807 24.61528 53.882366
26.189108 1.4305373 -5.438024 -8.689486 9.347076 42.29902 -8.948592 5.73565
42.12188 8.502785 -35.326084 5.816227 -38.761333 -23.37523 12.149862 8.973757
-6.3087416 21.445425 -16.308743 8.980062 -9.389112 50.36037 15.526257 18.23869
-0.66848826 15.494963 -21.623848 -19.99732 -22.566835 13.847071 45.819294 6.3210464
39.461533 -1.5413387 19.089277 32.135513 33.323586 6.525099 60.593704 5.461719

model.1.running_var f4 [128]
00000000: 85c6 8e41 b88a 6140 e36a e540 bbac b640
00000010: d461 0641 1eca 4b42 d800 5c42 fcdf 6f41
00000020: 8268 8441 af77 7e40 1bf3 aa42 dcf2 0d42
00000030: e536 2c41 ef7f 6640 968f aa3f bec5 9541
00000040: e71a 4942 d232 4540 034b 0a40 25ee 2440
00000050: b6fb 1b42 b688 8b42 ed59 d741 bec2 df41
00000060: 9e40 9141 a6db 2a41 b9b9 9141 915f 0542
00000070: bd8f 2840 cf89 2741 efd6 1b42 2e6d 3842
00000080: f1bf 8341 1397 3941 e117 1241 02b1 4f40
00000090: bea5 2241 b278 d640 47bf be41 175a 9e41
000000a0: 67b6 0741 1f0b 5a41 b1c4 c741 b677 3441
000000b0: 1d63 0243 cdc8 e942 4196 d13f 24ea dc42
000000c0: d02b 9540 55fa 4c41 ffea f840 c6a3 8e40
000000d0: 3002 a142 f99c cc41 0960 e940 389b 0c41
000000e0: 7f6c c140 80e7 5041 d9f4 3442 9a30 a741
000000f0: 2ddc 4440 03e2 3f41 241e b541 d461 f53f
00000100: b921 6d3f d0aa c740 9491 0042 bcfe d241
00000110: fb4b de3f 0d2c 2241 1af1 7941 1838 b641
00000120: b14c 0240 fab2 2340 f96a 3b40 ca00 1e41
00000130: 237e 6e40 b510 2f41 053f 2a42 1e3b dc42
00000140: 295a 9540 ab9d 8640 5800 7341 d1db 5042
00000150: 5656 4641 3ff5 d33f d5a6 ab41 609e e242
00000160: 0ae0 6f42 2b49 0042 8f5f 4f40 64e8 7c40
00000170: 7816 4841 9a1e 6c42 ba76 6341 17c7 d93f
00000180: e442 ab42 67df 0840 c0b7 a841 ca00 be3f
00000190: dbfb c941 254e 4141 5dad 4041 757d 1d41
000001a0: 2294 aa3f 38eb ae41 9d99 c640 a929 0d42
000001b0: c556 8c41 4def 5042 c49b d641 1e30 1942
000001c0: e4dc fd40 e5a5 7b41 301a 1841 90a9 0041
000001d0: a5bb 2f42 4dde f940 d909 9042 62a8 b03f
000001e0: b1c1 4c42 03ed 2840 5716 e441 6be0 5642
000001f0: 74b5 9142 eea8 fc40 24c1 1043 3d33 1542
17.846933 3.5240917 7.1692977 5.7085853 8.398884 50.94738 55.000824 14.992184
16.55103 3.976055 85.474815 35.487167 10.763402 3.6015584 1.3325069 18.721554
50.27627 3.0812268 2.1608284 2.5770352 38.99581 69.76701 26.91891 27.970089
18.156551 10.678625 18.215685 33.343327 2.633773 10.471145 38.959896 46.10662
16.468721 11.599383 9.13083 3.2451787 10.165464 6.7022333 23.843397 19.79399
8.482032 13.627715 24.97104 11.279226 130.38716 116.89219 1.6373979 110.457306
4.661598 12.811116 7.778686 4.457492 80.50427 25.576647 7.292973 8.787895
6.044494 13.056519 45.23911 20.898731 3.0759385 11.992679 22.639717 1.917048
0.9262958 6.239601 32.142166 26.374382 1.7366937 10.135755 15.621363 22.77739
2.0359309 2.5577989 2.928404 9.875193 3.7264488 10.941579 42.561543 110.11546
4.667256 4.2067466 15.187584 52.214664 12.396078 1.6559218 21.45646 113.309326
59.96879 32.071453 3.2402074 3.951684 12.505486 59.029884 14.216486 1.7013882
85.630646 2.1386354 21.089722 1.4843991 25.247976 12.081578 12.042325 9.843129
1.3326457 21.864853 6.2062516 35.290684 17.542368 52.233692 26.826057 38.29699
7.933214 15.728002 9.506393 8.041397 43.933247 7.8083863 72.01923 1.3801386
51.18915 2.639466 28.510908 53.71916 72.8544 7.8956213 144.75446 37.300037

model.4.weight f4 [64, 128]
00000000: 6644 263e f760 8d3c 5b86 0d3e a059 633d
00000010: ce70 eebd ccb2 d43d 6ab1 7b3d bfe6 873d
00000020: 69fd 163b 86b7 023e 0453 c73d deea 6b3d
00000030: 363d 34bd ad2f 88bd cb40 88bd 3fab 8d3d
00000040: f350 1f3d e5a2 c33c cb3a 3ebe 9b6a 463d
00000050: dd4b 04bd 97bf 493d 6795 253a c399 1e3d
00000060: 7fc3 913b 629b 843d 441d 1cbd 0f2f 2e3e
00000070: 7141 b6bd c506 b43c 748d db3d 2ff5 84bc
00000080: 1824 72bc 157a bbbd 8b83 bb3d 4470 ddbd
00000090: 2445 003d 9ae2 013d b932 0dbd 4bb6 8abc
000000a0: d153 fabc c727 eebd a676 603a 26b2 0c3c
000000b0: 6148 3cbd fc1d 2a3d 5b2e d53c bc33 11be
000000c0: 5aa9 07be 4684 29be 6b00 f2bc df4f de3c
000000d0: 9911 3e3d 1d9a a23d 6c56 393e a06d d0b9
000000e0: fcbc 19bd 4209 2c3d 7102 583d 2e88 163d
000000f0: f788 f4bd 26b7 023e b2bd 04be 9b42 383d
00000100: f37f 4d3e 4cbc 45bd a146 57bd 32e1 2cbd
00000110: 8d78 6bbd 5715 0ebe a7cd 6b3d 0fcd bbbc
00000120: 31cf 943d 8e2a c5bd 67cd c53d 8564 503d
00000130: d541 d4bd 8346 633d 520d f43d 166e 853d
00000140: 22a8 91bc 0d15 93be 1c05 c1bd c76e 733d
00000150: 0e56 41bd 3f0f 99be 7386 21bd 2307 06bd
00000160: b4d2 2fbd a36b ea3c 9273 703d ee16 d33c
00000170: 7274 17bd b1a4 02bd a9f0 80bc b155 4abe
00000180: 91b4 48bd 9df5 86be ed04 b23d ba59 fbbd
00000190: 46ae 083e 6745 c63c 6884 c5b9 4a41 30be
000001a0: 2c7a 07be 1478 d73d 9ce9 4e3d 3b4c 6dbd
000001b0: 7714 71bd 7b49 6cbc 34c8 0e3e ecb5 023d
000001c0: c1c3 89bd ab88 453c ac9c 503e 1427 bc3c
000001d0: 4c2f 8c3c 8f0a d73c d03a 82bc 18c6 32bd
000001e0: f990 303c f69e 82bc 830e b63b f8f0 b838
000001f0: 862d 383d f5c4 dfbc a25e a1bd ff11 20be
00000200: 0e74 0e3d 414c f13d a6c9 2dbd 3da4 cc3c
00000210: 9197 c8be c569 5fbd d4fa 0e3d 924e 38bd
00000220: 464f b13d be5e 26bd 92bc aebb 3fbb b7bd
00000230: 07c2 88bc f1b7 1cbd 3d60 f6bd f48c c13d
00000240: b6c1 cebd 5710 d2bc 7f2c 1a3e 0b7c abbe
00000250: 5a80 53bd 6cd8 d13c 9031 3839 5d27 cfbd
00000260: c90d fabd af7b 88bc 9906 81bd 9680 073d
00000270: 8955 3cbd 19ef a5bd b758 fdbb 3497 c0bd
00000280: 0979 c43d 3aa2 143d cfe6 5dbe ec6d aabe
00000290: 9402 21be 10b5 f83d 623e 31bd 8f23 2ebe
000002a0: 8a63 7f3d e8cc 1639 cc6a 503c 81e8 f0bd
000002b0: 9a92 82ba 4d5e 753d 095f fcbc e220 65bc
000002c0: 77ba 853d 211c 85ba e906 7f3d a0cd 53be
000002d0: bd96 7c3d 8460 c3bd 62da 5fbd 65f9 afbc
000002e0: 75e4 683d d578 2dbd 8bd0 bfbc 1b43 04be
000002f0: af43 c93c bf14 a6bc efd6 a03c afab ed3d
00000300: ccd1 6abd b589 0e3e 5316 6f3d 2ca4 5dbc
00000310: 3c27 403d 3c75 39be 7b12 953c d2f7 0a3d
00000320: ccac debd 1ac0 b7bd 3395 52bd ebaf 5e3d
00000330: a3df 9fbd bf01 0ebd 8cb5 80bd 85d8 8e3d
00000340: 4948 f3bc ce83 aebd ca8e 813d 2878 5d3c
00000350: c154 1ebd 7615 48be 325a a0bc 06bf 67be
00000360: 46bb 1bbe d2cf 823d b659 6abd f9b1 083b
00000370: d742 9e3c bc04 89ba d2a9 c03d c1aa 153e
00000380: 52e0 e63c 20f7 93bd c084 68bc 4753 913d
00000390: a451 063d ce7e b63c a854 cd3d b249 babc
000003a0: 6a3b b8be da52 173c 9c00 d7bd 0a05 443d
000003b0: 4eee fb3d c33c b93d f7ae be3b 4220 47be
000003c0: 4d66 25bc 260f 05ba 1ab5 dabd 24a8 b5bd
000003d0: eb73 64bd 6197 1d3e 92a5 123d 8def 11bd
000003e0: 96f2 8fbd 0738 d2bc 627d a939 07a6 8dbc
000003f0: 137c cbbd 517f 8abe f737 69bd 5220 b9bc
0.1623703 0.01725815 0.13820784 0.055505395 -0.116426095 0.10385665 0.061448492 0.06635808
0.0023039228 0.12765321 0.09732631 0.057597034 -0.044003688 -0.066497184 -0.06652983 0.06917428
0.03889556 0.023881385 -0.18577115 0.04844151 -0.03229891 0.04925498 0.0006316513 0.038720857
0.004448354 0.064749494 -0.038113847 0.17010139 -0.08899201 0.021975884 0.107203394 -0.016230194
-0.014779113 -0.09154145 0.09155949 -0.108124286 0.031315938 0.031710245 -0.0344722 -0.016932627
-0.030557545 -0.11628681 0.0008562602 0.008587396 -0.045967463 0.0415325 0.02602308 -0.14179891
-0.13248196 -0.16554365 -0.029541215 0.027137695 0.0464035 0.07939551 0.18099374 -0.0003975453
-0.037533745 0.042001016 0.052736703 0.036750965 -0.119401865 0.12765178 -0.12962988 0.044985395
0.2006834 -0.048275277 -0.05255759 -0.04220695 -0.057488013 -0.13875328 0.057569172 -0.022924928
0.07266081 -0.09627257 0.09658318 0.050877113 -0.10364119 0.055487167 0.11916603 0.06515138
-0.017780367 -0.28726998 -0.09424803 0.059431817 -0.04720121 -0.29894444 -0.03943486 -0.03272165
-0.04292555 0.028615778 0.058703966 0.02576777 -0.036976285 -0.031895343 -0.015739756 -0.19759251
-0.049000327 -0.26359263 0.08692346 -0.12272973 0.1334773 0.024203015 -0.00037673418 -0.17212406
-0.13230199 0.1052095 0.050515756 -0.057934027 -0.058857407 -0.014421816 0.13943559 0.031911775
-0.0672679 0.01205651 0.20372266 0.022967853 0.017112397 0.026250152 -0.015897185 -0.04364595
0.010776752 -0.01594494 0.005555929 8.818688e-05 0.04496529 -0.027315596 -0.07879378 -0.15631865
0.034778647 0.117821224 -0.042428635 0.024980659 -0.39178136 -0.05454423 0.034907177 -0.044996805
0.08657698 -0.040617697 -0.005332538 -0.08971261 -0.016694082 -0.038261358 -0.12030075 0.09450713
-0.10095541 -0.025642557 0.15056036 -0.33493075 -0.051636077 0.025615893 0.00017566071 -0.1011493
-0.122096606 -0.01666054 -0.063000865 0.033081613 -0.04598001 -0.08102245 -0.007731523 -0.0940384
0.09593398 0.036287524 -0.21670078 -0.3328699 -0.1572364 0.1214391 -0.043272384 -0.17005752
0.062350787 0.00014381448 0.012720775 -0.117630966 -0.0009961904 0.059904385 -0.030807035 -0.013984891
0.06529706 -0.0010155478 0.06226245 -0.20683908 0.061667193 -0.09539893 -0.054651625 -0.021481225
0.0568585 -0.042351563 -0.02341487 -0.12916224 0.024568407 -0.020273564 0.019633738 0.11605012
-0.057328984 0.13919719 0.0583709 -0.013527911 0.046912417 -0.18111128 0.018197289 0.033927746
-0.10872802 -0.08972187 -0.05141182 0.054366987 -0.07806327 -0.034669634 -0.06284627 0.069748916
-0.029697554 -0.085212335 0.06326063 0.013517417 -0.038655046 -0.19539437 -0.019574258 -0.22631463
-0.15208158 0.06387295 -0.05721446 0.0020858033 0.019318981 -0.0010453681 0.09407391 0.14615919
0.028183136 -0.0722487 -0.014191806 0.07095962 0.032792702 0.022277262 0.100259125 -0.022740219
-0.3598283 0.009236062 -0.10498163 0.047856368 0.123013124 0.090447925 0.0058191973 -0.19445899
-0.010095191 -0.00050758047 -0.10679074 -0.08869961 -0.05577461 0.15389778 0.03580243 -0.035628844
-0.070286915 -0.025661482 0.0003232761 -0.017291082 -0.09935775 -0.2705026 -0.056938138 -0.02259842

model.4.bias f4 [64]
00000000: 17c2 3bbd 235d 9d3d 6a51 843d 884e 9dbd
00000010: 71b7 5f3d e4a6 8e3d cf25 1dbd 7d58 0fbd
00000020: 33fc 52bc 6a55 9a3c 1a28 13bd 3a16 07bd
00000030: f011 b83d f8e2 843d 4018 ac3d ab09 4b3c
00000040: 8435 a63d d014 d33c 97ff 81bc 5a14 673c
00000050: 897a 893d 624e 2bbb 15d8 9b3d 9ec7 73bc
00000060: 8c71 5f3d 72bb 9abd 8837 703d 212d 963d
00000070: d236 843d 511d 823d b367 a8bd 81dc 2bbc
00000080: f90f 453d 708a a93d b934 3bbd 68f7 fabc
00000090: ea7d febc 5c79 9e3d 2bf2 5f3d 7f13 b2bd
000000a0: e396 933c 12df 91bd 526f c0bc 1350 b03d
000000b0: 1564 35bc ac7f 553d 91ef 743d d5ef a03d
000000c0: 8140 453d 9fb4 83bd 5673 253d 2061 9e3d
000000d0: 8979 cdbb 7a85 823c efc0 a1bb e78e 2cbd
000000e0: fc0a 5a3d 9467 873d b381 0dbd 4481 583c
000000f0: 0f80 163d 416a 97bd 6c52 47bc 29b0 a13d
-0.045839395 0.0768378 0.06460841 -0.07680994 0.054618303 0.069654256 -0.038366135 -0.0349965
-0.012877512 0.018839557 -0.035926916 -0.03298018 0.08987796 0.06488603 0.08403063 0.012392442
0.08115676 0.02576676 -0.015868945 0.014103973 0.06712825 -0.002613925 0.07609574 -0.014879135
0.054551646 -0.075552836 0.05864671 0.073328264 0.06455769 0.06353248 -0.08222904 -0.010489584
0.048110936 0.08278358 -0.045704577 -0.03063555 -0.0310659 0.07737991 0.05467431 -0.08695125
0.018016284 -0.071226254 -0.023490582 0.08609023 -0.011071225 0.05212371 0.05979878 0.07858244
0.04815722 -0.06430935 0.040393196 0.07733369 -0.0062705916 0.015932787 -0.0049363296 -0.04212847
0.05323313 0.06611553 -0.03454752 0.013214413 0.03674322 -0.07393313 -0.012165647 0.07894928

model.5.weight f4 [64]
00000000: 1c3e 423f 0f85 523f b57a 7d3f 045d 6e3f
00000010: 182c 833f 55ee 663f 5e7f 753f 9b8d 6d3f
00000020: 3e04 653f 2e9c 5a3f 3aae 803f 8bd9 863f
00000030: 1180 823f 3b1a 8b3f df6b 7b3f d1f0 5b3f
00000040: 8f16 693f f1a9 7e3f 5b77 803f f2f9 863f
00000050: 9821 753f bc39 713f f7ee 7a3f c998 663f
00000060: fd5a 633f ffca 783f 73e2 703f 5a9b 7b3f
00000070: fa66 713f 471c 603f 9de9 783f f1ff 7e3f
00000080: c288 6a3f 4aaf 693f e9cb 533f e175 833f
00000090: 4847 883f 9aa8 5b3f 3a57 713f cc0a 593f
000000a0: 38ea 723f 41f8 773f df6c 873f dded 623f
000000b0: abe9 653f 16f4 773f ec0b 533f 3e90 6f3f
000000c0: 9160 6e3f 0c1a 703f cec1 6d3f d669 743f
000000d0: b0ef 533f e80e 793f f8e1 7b3f 67c4 593f
000000e0: a991 573f 4dfc 5c3f b8c3 763f 9aa6 743f
000000f0: e488 853f db87 813f e33c 673f cd1f 5d3f
0.7587602 0.8223428 0.9901536 0.9311068 1.0247831 0.90207416 0.9589747 0.927942
0.894596 0.8539456 1.005317 1.0535139 1.0195333 1.086738 0.98211473 0.8591433
0.91050047 0.9947806 1.0036424 1.0545027 0.95754385 0.9422872 0.9802088 0.9007688
0.8881071 0.9718475 0.94095534 0.9828392 0.94297755 0.8754315 0.97231466 0.99609286
0.91614926 0.91283095 0.8273302 1.0270349 1.0646753 0.8580414 0.9427372 0.847821
0.9488864 0.9686318 1.05801 0.886442 0.89809674 0.9685682 0.82440066 0.9357947
0.931161 0.93789744 0.9287385 0.9547399 0.8278761 0.9728837 0.98391676 0.8506531
0.84206635 0.8632248 0.96392393 0.95566714 1.0432401 1.0119585 0.9032728 0.8637665

model.5.bias f4 [64]
00000000: b5b7 afbe f583 c8be 3c6d 4abe d709 eebc
00000010: ba0d 06bd 4412 eebd 79b2 74bd 7db6 a4be
00000020: 0f13 e5bb 89a6 5cbd 1127 213c 8ac9 a93c
00000030: f91b a8bd b907 42be 2330 9cbe b446 12bf
00000040: 7173 25be ebc6 65be 8cfd ebbd 6b92 a3bd
00000050: 8a59 1abe 95f1 cebe 623d 11bc 70f7 31be
00000060: b16b 58be 4ec3 86bb 696f f1be d511 b9bc
00000070: 14d4 aabe 2d13 17bd ae95 18bf a8f2 87be
00000080: 8447 0abe c6b6 92be 975c 24be f760 5d3c
00000090: 3bb2 53be 52c5 91be c881 80be 5c5f 80be
000000a0: ec09 a6be ba2d a1be 00bd f23c e540 56be
000000b0: 4224 6cbe 52be f3bc cd1e a4be 072d 6cbc
000000c0: cca8 11bd 7a64 c3bd 387d 17bd c80f a6be
000000d0: 0e86 bdbe eb44 8dbe 6fce c9be bf25 a4bd
000000e0: c9c8 8cbe bf62 a8be df88 48be 45ed 9ebe
000000f0: af7a babd bfd6 7bbe 977e 9cbe 5bb5 2fbe
-0.34319845 -0.39163175 -0.19768232 -0.029057426 -0.032727934 -0.11624578 -0.059740517 -0.32170478
-0.0069907974 -0.053869758 0.009835974 0.020725984 -0.0820846 -0.18948258 -0.30505475 -0.57139134
-0.16157319 -0.22439162 -0.115229696 -0.079869114 -0.15073219 -0.40418687 -0.008864732 -0.17379546
-0.21134831 -0.0041126376 -0.47155312 -0.02259151 -0.33364928 -0.03688352 -0.59603393 -0.2655232
-0.13503844 -0.2865507 -0.16050945 0.013511888 -0.20673458 -0.28470856 -0.25099015 -0.25072753
-0.32429445 -0.314802 0.029631138 -0.20923193 -0.23060706 -0.029753838 -0.3205475 -0.014415032
-0.035561368 -0.09540649 -0.036984652 -0.32433915 -0.37016338 -0.27591643 -0.3941531 -0.08015012
-0.27496937 -0.32887837 -0.19583462 -0.31040397 -0.09105431 -0.24593638 -0.3056533 -0.17159025

model.5.running_mean f4 [64]
00000000: 6afc 94be e34e 40bf d78a 69bf ac57 f4be
00000010: 4fa2 f23e 8780 14bf 5a36 cbbd 7526 84bf
00000020: 84b7 05bf 0526 aebe 7498 b5be 1e2a 9dbe
00000030: dfce 6dbe 21c1 5dbe 9f8f df3b 279e 9d3f
00000040: 7cd9 97be 19d2 a5bf d119 0abf c119 b5be
00000050: 12d7 223e ac7e 123f b93a 8bbe 7e77 86bf
00000060: 9a1a dabd 6996 d1be c345 743f cef3 9ebe
00000070: 2dd6 9bbe af3d 1ebf e411 c93f 3d23 9bbf
00000080: 040b 75be 4d7d 96bf 6f01 79bf cb71 ec3d
00000090: ed82 3a3f 79b9 ccbf 575d 8f3d a0e6 b2bf
000000a0: d50c 793f 69b1 34bf cb32 9cbe 79e1 8dbe
000000b0: dcc9 02bf 60b8 14be a3bd 0a3e 63c2 c1be
000000c0: adb7 e9be 800f b43f d5c3 c1be 765e b73f
000000d0: ac6a ebbe 8cd3 e33e b8ee 15bf 7e13 13bf
000000e0: 7067 ddbe 56bb 24bf f533 823f 3c2c 9bbe
000000f0: 20df 74be bf24 ac3f bcb6 7bbf a1cf e03e
-0.29098827 -0.7512037 -0.9122748 -0.47723138 0.47389457 -0.5800862 -0.09922476 -1.0324236
-0.5223315 -0.34013382 -0.35467875 -0.30696195 -0.23223446 -0.21655704 0.006822541 1.2313889
-0.29658115 -1.2954742 -0.5394564 -0.3537121 0.15902355 0.57224536 -0.2719324 -1.0505216
-0.10649605 -0.40935066 0.9541895 -0.31045383 -0.3043684 -0.6181287 1.5708585 -1.2120129
-0.23929983 -1.1756989 -0.9726781 0.11545142 0.72856027 -1.5994102 0.07000225 -1.3976631
0.97285205 -0.70583206 -0.30507502 -0.27711084 -0.5108926 -0.14523458 0.13548903 -0.37843618
-0.45647946 1.406723 -0.3784472 1.4325702 -0.45979822 0.44497335 -0.5856738 -0.5745162
-0.4324298 -0.6434835 1.0172106 -0.30307186 -0.2391324 1.3448714 -0.98325706 0.43908408

model.5.running_var f4 [64]
00000000: 06d2 2e3f 9d06 503f 8641 073f 6654 fd3f
00000010: 8446 4c3f 1b8c 2940 063b d33e cf5b 493f
00000020: 049f 2440 3080 b13f 73ec c93f f210 b33f
00000030: f16d b43f 27f8 413f bbb8 d33e a7e3 203f
00000040: c81b 233f 8ddf 5f3f b307 5f3f 4e3d 863f
00000050: 4160 e93e ec25 bc3e 593a f13f 944f 2540
00000060: d45f d93e 11ea 0040 2aa7 013f a8bc 0340
00000070: 475f 713e f678 2840 4d54 193f 29cd 163f
00000080: da64 b33f 7971 6d3f acfd 3b40 628c 873f
00000090: 1e7c 3a3f 459e 1640 4066 b83e 281f 6340
000000a0: 7180 c13e 0c46 1f3f f622 783f 47e4 503f
000000b0: 835f 083f 383d df3f 3fb4 973e 70c0 f43f
000000c0: 5cd4 de3f e82f b23f 3bd5 d33f adc8 e93e
000000d0: 9f18 d63e f33d 963e 5850 623f 88f1 cb3f
000000e0: 5928 c93e de67 893f 4861 3d3f 5465 113f
000000f0: 7978 5b3f 9e93 483f e0d4 b23f ac65 853f
0.6828922 0.8126009 0.52834356 1.9791381 0.797951 2.6491764 0.4125597 0.78655714
2.5722055 1.3867245 1.5775284 1.3989546 1.4096051 0.75769275 0.41351876 0.6284737
0.63714266 0.87450486 0.87121123 1.0487459 0.45581248 0.36747682 1.8845931 2.582982
0.42455924 2.0142863 0.506457 2.0583897 0.23571502 2.6323829 0.5989426 0.589068
1.4015152 0.9275127 2.937358 1.0589716 0.7284564 2.35341 0.3601551 3.5487766
0.37793306 0.6221626 0.96928346 0.81598324 0.5327074 1.7440557 0.29629704 1.9121227
1.7408557 1.392087 1.6549448 0.45660916 0.4181566 0.29344139 0.88403845 1.5933084
0.39288595 1.0734823 0.73976564 0.5679524 0.857307 0.78350246 1.3971214 1.0421653

model.8.weight f4 [16, 64]
00000000: 7dca 103e 683c 87bd 4786 d1bc 8d99 68bc
00000010: 1bd4 20be 7707 ab3b 190b ecbd df0f 0d3e
00000020: 8a7c a63c ada4 85bc 927c c83c cfe6 e0bd
00000030: c70a 1abd beda 2a3d 832e 0bbe b402 fabd
00000040: 1196 e9bd 9401 4bbc 4476 173d 2aa9 08be
00000050: 87cf afbd a12c c3bd 6876 e93c 825e 5abd
00000060: 0a0f 2b3e 3b88 fcbc 43ab b23b c5e6 3abd
00000070: fb0a 13be 81fd fc3d ef4d 4bbe e96f 0dbe
00000080: 8021 cf3c cb71 44bc 4a6a 1a3d 8c0a 03be
00000090: 61db 0ebe 58bd 54bc a289 24be ef33 39bd
000000a0: 4beb 15be dcc2 2c3e 0b46 2cbe 5ba5 3d3d
000000b0: b68c 9d3d 2990 533b 2d1d 173d f832 343d
000000c0: 64fb 353d a58c 0b3e f5fc 78bd 857f d5bd
000000d0: 0ffa 353d 920c 46be 0199 62be da72 6c3c
000000e0: 8e21 52bd f7fd ee3d eb55 31bd 8a54 16bd
000000f0: 010f 46be 2440 36be 5ef7 7f3d fcc3 e6bd
00000100: cf20 463b f85d 3abc 586a 693d c21c 1ebe
00000110: e071 95bd 8ed8 2bbd 2552 b43c 0fc9 6c3e
00000120: 22ed 2abe 920b fc3c b0ca 5abe 3130 75bb
00000130: 4f77 b6bd 5dff 85be 8840 ae3d ecaa 11be
00000140: 2efd fbbc cd61 efbd 5011 61be 581e b1bb
00000150: 7118 2b3b f657 053e cf71 54be d01c bdbb
00000160: 6316 0dbd 72fc 4cbe 4c18 1dbd c43b e9bd
00000170: eb79 0e3e baaa 31be 364f a43e 171c 92bd
00000180: 195a 80be 2ddd 2b3d c54a 393d c75b 00bd
00000190: 0982 bc3d 4c02 3f3e 93c6 2c3d 738b 043e
000001a0: 183c af3d 94dc 843d f955 033e 24f6 11bc
000001b0: f37b 96bd 324b 49be e1b7 993d 8f18 63be
000001c0: 4d70 2ebe 518f 4ebd ce2b 29be d172 9cbc
000001d0: ea96 bcbd a0b0 8c3d dbec 9bbd 5764 833a
000001e0: 57e1 3c3e 8bd1 2cbd 90d8 a23d 84c3 fe3c
000001f0: 816a 94bc 6f9d 5d3d d5de f03c 25fd 8ebc
00000200: 52d2 ae3d b963 98bd c82a 03be f50e b13d
00000210: bf28 50bd 0b6e 8b3d 355f 5dbd ecb9 a33d
00000220: 398c debc 2ce1 423d f5ff 27bd bfb5 47bd
00000230: f536 e43b 6d03 3bbd 036f 2bbe 342e ccbd
00000240: ced9 26be c41d 61bd 039f c7bc 528c 61be
00000250: a83d 92bd 79e8 a0bd 42cc b1bd f815 f9bc
00000260: 490f 6d3d ca77 4b3d cf30 58be 328d 2c3d
00000270: 1e65 4ebe d909 a4bd b713 18be 6dec 24be
00000280: 6120 2a3d aadc b8bd 08ae 5b3d a76b 0cbe
00000290: 04d2 0ebe 90cf 9ebd 362f 13be 5110 563d
000002a0: e493 febd 8bb0 e23d 4302 c2bd 32e9 f83d
000002b0: 12dd 0f3e a3d7 70bd dc16 173d b811 f63c
000002c0: b143 1f3d d6a8 d3bc eff9 8ebd 59e6 26be
000002d0: beee 6c3d 2e2c 85bd 0a7b 88be 45ff 3b3d
000002e0: de75 023d e429 cd3d 8e9c 1fbe 3aec babd
000002f0: 61c2 c7bd 63f7 35be 5a12 5c3d e266 2dbc
00000300: 1f38 8e3d d85d 29bd bc50 b5bd 9247 52bd
00000310: 1c79 37be 0147 b33d 39c2 e9bd 838f 8fbc
00000320: 8228 b33d a921 54bd 26b3 a6bc 8119 10be
00000330: 1082 d9bc 0909 b5bd 15c4 1cbe dc5e 4238
00000340: cee3 eabd bb65 cabb 9c8d 973d 5a5a 8abe
00000350: 44dc f4bc 7970 7dbd d2d8 92bd 20f2 febc
00000360: 4dc6 b5bc 6231 d83c 3447 abbd e6e8 01bc
00000370: 8654 3abe b4ba 233c cdcc a9bd b460 3ebe
00000380: 6e78 73bd 0c4b 4fbd 4768 323d cb56 04be
00000390: 8b2d 56be 9f86 34bc 0e6a b8bd 9c92 0c3e
000003a0: d405 b3bd 7418 173e c809 2fbe bd4b 373d
000003b0: ddc5 9d3d 8672 d13c 4f25 c03c a5a9 163c
000003c0: 1487 b5bd 720a 403c 8f67 47bc 99f6 eebd
000003d0: 2b6b 693d c478 a13d b76c d0bd 15bc 87bd
000003e0: 28fc edbc 8000 873d fe65 50be 5c70 11be
000003f0: 2a7c 20be fcaa 16be 4aec 753d 3cb1 8abd
0.14139743 -0.066033185 -0.025576724 -0.014196766 -0.15705912 0.0052193957 -0.11525554 0.13775586
0.020323057 -0.016313875 0.024473462 -0.10981523 -0.037607934 0.041712515 -0.13591962 -0.12207547
-0.11405576 -0.012390513 0.03697802 -0.13345781 -0.085845046 -0.09529997 0.028498843 -0.053312786
0.16704956 -0.030826678 0.005452545 -0.045630235 -0.14359657 0.123530395 -0.19853948 -0.13812222
0.025284529 -0.011990021 0.03769902 -0.12796992 -0.13950874 -0.012984596 -0.16068128 -0.045215543
-0.14640538 0.16871208 -0.16823594 0.046300273 0.07692854 0.003228197 0.03689306 0.04399392
0.044429198 0.1362787 -0.060788114 -0.10424713 0.044427928 -0.19340733 -0.22128679 0.01443168
-0.05130153 0.11669534 -0.04329483 -0.036701716 -0.19341661 -0.17797905 0.062491767 -0.1126785
0.0030231958 -0.011374943 0.056986183 -0.15440658 -0.072971106 -0.04195457 0.022011826 0.23123573
-0.16692021 0.030767236 -0.21366382 -0.0037412758 -0.08909475 -0.2617139 0.08508402 -0.14225358
-0.030760374 -0.11688576 -0.2197926 -0.0054052286 0.0026107098 0.13021836 -0.2074654 -0.005771257
-0.034445178 -0.20018175 -0.03835325 -0.113883525 0.13913696 -0.17350283 0.32091683 -0.07134264
-0.2506874 0.041958977 0.04523732 -0.031337526 0.0920449 0.1865322 0.042181563 0.1294382
0.08556384 0.064873844 0.12825765 -0.008908782 -0.0734786 -0.19657591 0.07505775 -0.22177337
-0.17035027 -0.050429646 -0.16520616 -0.019097717 -0.09208472 0.06869626 -0.07613536 0.001002441
0.18445335 -0.042192023 0.07951462 0.031099088 -0.018117191 0.05410522 0.02940313 -0.017454693
0.08536209 -0.074408956 -0.12809289 0.08645431 -0.05082011 0.068080984 -0.054045875 0.07994446
-0.027166473 0.047578022 -0.041015584 -0.04875731 0.006964559 -0.045657564 -0.16741566 -0.0996975
-0.16294023 -0.054960027 -0.024367815 -0.22026184 -0.07140666 -0.07856841 -0.08681537 -0.030405983
0.057875905 0.049674787 -0.21112369 0.04212684 -0.2015576 -0.08009691 -0.1485127 -0.16105814
0.041534785 -0.09026463 0.053632766 -0.13712941 -0.13947302 -0.07754433 -0.14373478 0.052261654
-0.12430552 0.11068829 -0.09473088 0.121538535 0.14049175 -0.058799397 0.036887035 0.030037746
0.038882915 -0.025837343 -0.06981265 -0.16298808 0.05784487 -0.06502567 -0.2665637 0.04589774
0.03185069 0.10017756 -0.15587065 -0.09127088 -0.09753872 -0.17770152 0.05372844 -0.010583611
0.06944298 -0.041349262 -0.088532895 -0.051337786 -0.17917293 0.08753777 -0.11413998 -0.017524486
0.087479606 -0.051789913 -0.020349097 -0.14072229 -0.026551276 -0.08839614 -0.15309174 4.634155e-05
-0.114692315 -0.006176678 0.07400057 -0.27022058 -0.029890187 -0.06187484 -0.071702614 -0.031121314
-0.022189284 0.026390735 -0.0836319 -0.0079290625 -0.18196306 0.009993244 -0.08291016 -0.18591577
-0.059441023 -0.05060868 0.043556478 -0.12923734 -0.20915811 -0.011018424 -0.09004603 0.13727802
-0.08741346 0.14755422 -0.17093575 0.044749964 0.07703755 0.025567304 0.02345529 0.00919572
-0.08863655 0.01172124 -0.012170686 -0.116681285 0.05698697 0.07884362 -0.10176986 -0.06627671
-0.029050902 0.06591892 -0.20351407 -0.14203018 -0.15672365 -0.14713663 0.060039796 -0.06772086

model.8.bias f4 [16]
00000000: d594 31bc a242 953c d282 7b3d 532a b7bd
00000010: 7a62 08bd b0c2 143d 1f29 94bd e191 ac3d
00000020: 0f43 7cbd 6fd8 413c 210e c03d 44bc c1bd
00000030: de09 823d 5fe8 a2bd 2bcf efbd 2b0c f73c
-0.010838707 0.01822025 0.061404057 -0.089436196 -0.03329704 0.03631848 -0.07234406 0.08426262
-0.06158739 0.011831387 0.09377695 -0.09459737 0.06349538 -0.079544775 -0.11709436 0.03015717

model.9.weight f4 [16]
00000000: 1f65 813f d207 633f 0a7f 633f 0cd1 713f
00000010: 1d79 8a3f f1a5 843f 65af 7b3f f2b3 603f
00000020: 5148 743f 6d6b 873f 8dc4 723f 88d8 8c3f
00000030: baaa 7b3f 74ca 843f 2a7d 833f c576 7a3f
1.0108985 0.8868381 0.8886572 0.94459605 1.0818211 1.0363141 0.98314506 0.87774575
0.95422846 1.0579659 0.9483116 1.100358 0.98307383 1.0374284 1.0272572 0.9783748

model.9.bias f4 [16]
00000000: fe75 0bbe 880d c4bd d545 1dbe da99 d1bd
00000010: ab0b 50be 85ec 25be 983e 89bd bb69 5bbe
00000020: 9038 41bd 1e59 9abd 8e5d 5abe 8b94 1ebe
00000030: 2a95 49be ded1 143c 12c3 00be 26cc 92bd
-0.13619229 -0.095728934 -0.1535867 -0.10234423 -0.20316951 -0.16203506 -0.06701392 -0.21427052
-0.047173083 -0.07536529 -0.21324751 -0.15486352 -0.19685808 0.009083239 -0.12574413 -0.071678445

model.9.running_mean f4 [16]
00000000: 8deb 2ebf d645 3abf 9d5f 36bf 48f1 83bf
00000010: a8f3 0cbf bc65 f3be 8f97 79bf 7e97 2dbf
00000020: 0b6a 68bf 8fef 8bbe 63bd 2fbf ec00 5ebf
00000030: 92e5 20bf d800 32bf 9e0f a0bf 1892 2ebf
-0.6832817 -0.7276281 -0.71239644 -1.0308008 -0.5505929 -0.47538555 -0.97496885 -0.67809284
-0.9078681 -0.27331206 -0.68648356 -0.86720157 -0.62850296 -0.6953254 -1.2504766 -0.6819167

model.9.running_var f4 [16]
00000000: da26 4d3f c72a 843f 193c 4b3f 67c8 923f
00000010: b300 4a3e ad3f 603f a5e4 4d3f bb1c 7a3f
00000020: 41c5 a83f f6d0 033f 5c84 5b3f eff6 f43e
00000030: 54fd 1a3f 6817 733f 4511 ab3f 1c93 8d3f
0.8013741 1.0325555 0.79388577 1.1467408 0.19726829 0.8759716 0.8042701 0.9770009
1.3185197 0.51490724 0.8574884 0.47844645 0.605428 0.9495759 1.3364645 1.1060519

model.12.weight f4 [7, 16]
00000000: 15e3 09be 9485 953e 736e 43be f6b2 7bbe
00000010: ccd5 91bd fbf8 6f3e 45e8 e7bd fbe4 a03e
00000020: 73ef 8e3e 9a4b 983e 1299 19be 4293 74bd
00000030: 2aad bebd 07dc 5b3e eae3 7dbe 49cf 683e
00000040: de23 d6bd a5ba 6c3e e557 21be 692b 59be
00000050: 8727 12bd 8fed 613e 11f3 fbbd c588 933e
00000060: b640 5f3e d8b4 663e 94b5 f5bd c12a 19bd
00000070: 032e 5dbd b74e 493e 6fb3 3fbe ca45 4b3e
00000080: 7984 dcbd 647c 433e 0b5b f4bd bb1b 61be
00000090: d809 13bd af94 613e 0d7b 0cbe 91e1 573e
000000a0: e833 4e3e feb3 743e b4e7 21be 88e7 b53c
000000b0: c527 a2bd ccfb 303e 475b 43be a4fe 2c3e
000000c0: a721 f8bd 2db9 433e bac7 f5bc 4beb 8abe
000000d0: 839a 54bd 1973 873e 1b54 e3bd 0dc3 ae3e
000000e0: 021c 6e3e 1ac3 763e 8fbf 1cbe e0ed 81bc
000000f0: 6828 dcbd 2f29 793e 2675 60be cc1f 613e
00000100: 8acf 763e 0a75 b2bd c55a 063e 6534 af3d
00000110: edb7 943e e628 0dbd 7dde 073e 6da5 99bd
00000120: dc54 87bd cc9e 31bd 38d1 613e 460e 8f3e
00000130: fcc5 813e e4a0 f8bc 2d69 b93d 794c 03bd
00000140: a92f 383e 5d6b 95bd 80a6 943e b764 563b
00000150: a940 a73e 2e4c dbbc dcf1 073e c964 88bd
00000160: e3f7 3bbd b6fc 20bd e719 943e 6a6f 8e3e
00000170: 3fa1 293e 9258 9cbc 0482 0f3e 679f 8fbc
00000180: 3496 593e 8614 c4bd 95fc 4b3e 586a 9f3d
00000190: 3d24 963e 0d5d 36bd 6837 143e 0ee5 c4bd
000001a0: 5ec0 1ebd 0ca6 22bd faac 813e ffb6 973e
000001b0: 3ebc 763e 3354 28bd ea7a 3a3e 1b87 46bd
-0.13465531 0.29203475 -0.19085102 -0.24579987 -0.07120857 0.23434822 -0.11323599 0.31424698
0.2791706 0.2974518 -0.14999798 -0.05971075 -0.09310372 0.21470653 -0.24793974 0.22735323
-0.1045606 0.23118074 -0.15756185 -0.21207966 -0.035682227 0.22063278 -0.123022206 0.28815284
0.21802029 0.22529924 -0.11997524 -0.03739429 -0.05399896 0.19658934 -0.18720792 0.19850841
-0.10767455 0.1909042 -0.119314276 -0.21983235 -0.03589806 0.22029375 -0.13718815 0.2108214
0.20136988 0.23896787 -0.15811044 0.02220513 -0.07917742 0.17283553 -0.19077788 0.16894013
-0.12115794 0.19113608 -0.030002464 -0.2713264 -0.051905166 0.26455 -0.11100026 0.34133187
0.23252872 0.24097863 -0.15307449 -0.015860498 -0.107498944 0.24332117 -0.21919689 0.21984786
0.24102607 -0.0871373 0.13120563 0.08554915 0.29046574 -0.034462832 0.13268466 -0.075022556
-0.066079825 -0.04336433 0.22052467 0.27940577 0.25346363 -0.030350156 0.09053264 -0.032055352
0.17986931 -0.072958685 0.2903328 0.003271384 0.3266652 -0.026769724 0.13275856 -0.06659848
-0.0458907 -0.039303504 0.28926012 0.27819377 0.16565417 -0.019085202 0.14014441 -0.017532064
0.21248704 -0.09574227 0.19920571 0.07783955 0.29324523 -0.044522334 0.14474261 -0.09614001
-0.038757674 -0.039709136 0.25327283 0.29631802 0.24095246 -0.041095924 0.1821095 -0.04846869

model.12.bias f4 [7]
00000000: 3fca 2d3d 00e4 27be 94a1 213e 45db f03c
00000010: 4db3 63be 92a8 cabd 8dc9 6bbe
0.042429205 -0.16395569 0.15784293 0.02940143 -0.22236367 -0.098954335 -0.23026104

model.13.weight f4 [7]
00000000: 21e2 6640 f2b7 5240 f1ea 5140 550a 4c40
00000010: 2d4b 4040 7406 2740 45fc 3540
3.6075518 3.2924771 3.2799647 3.1881306 3.0045884 2.6097689 2.8435223

model.13.bias f4 [7]
00000000: 9730 23bf a8aa 2dbf b0cc 2bbf 4e38 32bf
00000010: 9807 8fbe 1c64 e1be 72d3 a6be
-0.6374602 -0.67838526 -0.67109203 -0.69617164 -0.2793548 -0.4402169 -0.32583195

model.13.running_mean f4 [7]
00000000: 9962 bd3e ec40 043e 9ad7 ca3e bd72 be3e
00000010: f61f 313e 6815 af3e 87a9 4d3e
0.36989287 0.1291539 0.39617616 0.37196913 0.17297348 0.3419602 0.20084201

model.13.running_var f4 [7]
00000000: 772f b93f 9b62 7f3f 4255 5a3f 364b 973f
00000010: 9b8e 013f 79c2 fb3e 427b 1a3f
1.446761 0.99759835 0.85286343 1.1819828 0.50608224 0.49171808 0.60344326

model.16.weight f4 [1, 7]
00000000: cac0 d93f 00af e43f 84a3 e43f 9295 e93f
00000010: f810 8fbf 5420 98bf 7ccd 8fbf
1.701196 1.7865906 1.7862401 1.824877 -1.1177053 -1.1884866 -1.1234584
